model/modelDepth1.pth (torch, 16799 bytes, 4 tensors)

lineal1.weight f4 [256, 11]
0	0xbf27056f	-0.65242666
1	0xbea7381c	-0.32659996
2	0x3d849546	0.06473784
3	0xbefaf62a	-0.49015933
4	0xbcf693dc	-0.030099802
5	0xbdf7df8f	-0.12103187
6	0x3efd2f09	0.49449947
7	0xbd3c824f	-0.04602271
8	0xbf2fa643	-0.6861307
9	0xbf29f247	-0.6638531
10	0x3eb0cc7f	0.34531018
11	0xbe593f30	-0.2121551
12	0xbcef865f	-0.029238878
13	0x3e5bf22e	0.21479103
14	0x3ecaf68e	0.3964123
15	0x3e4f37f6	0.20236191
16	0xbe00c97c	-0.1257686
17	0xbf3feaef	-0.74967855
18	0x3d3dd811	0.046348635
19	0x3eb6da8b	0.3571361
20	0xbf353820	-0.70788765
21	0xbf1f601b	-0.6225602
22	0xbeb6019c	-0.35548103
23	0xbf0b76a1	-0.5447789
24	0x3d481320	0.048846364
25	0xbf308864	-0.68958116
26	0x3e6425c6	0.22280034
27	0x3eeec591	0.46635106
28	0x3f15429f	0.5830478
29	0xbf3e7f7a	-0.74413264
30	0xbc6a7008	-0.014308937
31	0xbe8050a1	-0.25061515
32	0xbd9255c6	-0.07145266
33	0xbdbca55d	-0.09211228
34	0xbe2d769a	-0.16939774
35	0x3e9c6f04	0.30553448
36	0xbed3cfdd	-0.41369525
37	0x3eccfe10	0.40037584
38	0x3e09aa92	0.13443974
39	0xbf023d5b	-0.5087487
40	0xbf362444	-0.71149087
41	0x3e484f5e	0.19561526
42	0xbee83f85	-0.45360962
43	0xbf004ed4	-0.5012028
44	0xbd424f79	-0.047439072
45	0xbd3e34cc	-0.04643707
46	0xb9aae15e	-0.00032592838
47	0xbea5b84e	-0.32367176
48	0xbea8b32f	-0.32949206
49	0x3f03c854	0.5147755
50	0x3eafab94	0.3431059
51	0x3e76c981	0.24100305
52	0x3e8b6242	0.27223402
53	0xbf26e1be	-0.65188205
54	0xbf209f1e	-0.62742794
55	0xbd87d47a	-0.066323236
56	0x3ecfe30c	0.4060291
57	0x37386540	1.0990829e-05
58	0xbe132414	-0.14369231
59	0xbdab57f0	-0.08366382
60	0xbd61ef76	-0.05516001
61	0xbd004ee0	-0.03132522
62	0x3d7eb285	0.06218197
63	0xbd8c6e0e	-0.06856929
64	0x3ac9fd30	0.0015410539
65	0x3df53a11	0.11973966
66	0xbd54defc	-0.051970467
67	0x3df4c498	0.1195156
68	0x3e809dd3	0.2512041
69	0xbe73e3c0	-0.23817348
70	0xbdf1d8e4	-0.11808947
71	0xbef248aa	-0.47321063
72	0x3d2f1a02	0.042749412
73	0xbe9219d2	-0.28535324
74	0x3cbee078	0.023300394
75	0xbd6da324	-0.05801691
76	0xbee9d69f	-0.45671555
77	0x3e2f957c	0.17146868
78	0x3e7282b0	0.23682666
79	0xbd39adb6	-0.04533168
80	0xbd8c8ed6	-0.06863181
81	0xbdf14742	-0.117811695
82	0x3e487baf	0.19578432
83	0xbe726043	-0.23669533
84	0x3cb5ec94	0.022207536
85	0xbe249387	-0.16071902
86	0x3e1d4a41	0.15360357
87	0x3e66e60e	0.22548696
88	0x3ebac57f	0.36478803
89	0xbdfd88bf	-0.12379598
90	0xbe6dccf7	-0.23222719
91	0xbe56f692	-0.20992497
92	0x3e3e207b	0.18567078
93	0xbe9fa901	-0.31183627
94	0x3e9b2630	0.30302572
95	0x3eaec39f	0.34133622
96	0xbf0b06b1	-0.54307085
97	0xbf246c99	-0.64228207
98	0xbe592ab4	-0.21207696
99	0x3ea81710	0.32830095
100	0x3edf7911	0.43647054
101	0x3e548abb	0.20756046
102	0xbdf2ac32	-0.1184925
103	0xbe552728	-0.20815718
104	0xbd8b9721	-0.06815935
105	0xbe112d34	-0.141774
106	0x3eac59ea	0.3366235
107	0x3e91d47a	0.2848242
108	0x3edf1b5f	0.4357557
109	0x3f008d17	0.50215286
110	0xbe798dd9	-0.24370517
111	0x3e16d284	0.14728743
112	0xbe7240ba	-0.23657504
113	0xbe91d55f	-0.28483102
114	0x3d594e8f	0.053053435
115	0xbda88617	-0.082287006
116	0x3ddceccc	0.10787353
117	0xbc4097b6	-0.011754921
118	0x3cd795a4	0.026316471
119	0x3ddcc204	0.10779193
120	0xbdfd29ce	-0.12361489
121	0xbf194c04	-0.59881616
122	0x3e48e0f8	0.19617069
123	0x3e408404	0.1880036
124	0xbc819e63	-0.015822595
125	0xbd9eb316	-0.07749002
126	0xbdb5dbed	-0.08879838
127	0xbecfbfd7	-0.4057605
128	0xbdb4f30a	-0.088354185
129	0xbdcc4ee6	-0.09975986
130	0xbc0b4a02	-0.008501532
131	0xbe9d45b3	-0.3071724
132	0xbeb869e8	-0.360183
133	0x3e982a0b	0.29719576
134	0xbe397c61	-0.18113853
135	0xbe54ca63	-0.2078033
136	0x3ec14420	0.37747288
137	0xbf2a14d2	-0.6643802
138	0x3e67ab1d	0.22623868
139	0xbef67be4	-0.48141396
140	0x3ebd76a6	0.37004584
141	0xbe41aaae	-0.18912765
142	0xbf1bcfbd	-0.6086386
143	0xbe1c035a	-0.15235654
144	0x3df99359	0.121863075
145	0x3eac8610	0.33696032
146	0x3d529a83	0.051416885
147	0xbc8a10d5	-0.01685373
148	0xbe55b7aa	-0.20870844
149	0xbe993339	-0.29921892
150	0xbe457796	-0.192839
151	0x3cd0c81c	0.025486045
152	0x3dbaf15a	0.091280654
153	0x3e33a395	0.1754287
154	0x3d3b7dfe	0.045774452
155	0x3eab3638	0.33439803
156	0x3efb652a	0.4910062
157	0xba1c4d12	-0.0005962412
158	0xbe5c86ea	-0.2153584
159	0xbd87b1c1	-0.06625701
160	0xbd64e95f	-0.055886623
161	0x3e5eecfe	0.21770093
162	0x3e945e9b	0.28978428
163	0x3e77f9b8	0.24216354
164	0x3e888099	0.26660612
165	0x3e9ed6af	0.31023166
166	0x3ed82c86	0.4222147
167	0xbf77d67f	-0.9681167
168	0x3c54bd5d	0.012984601
169	0x3e528fc4	0.20562655
170	0xbed5c4a9	-0.41751602
171	0x3e32a352	0.17445114
172	0xbf06b050	-0.5261278
173	0x3dec4590	0.115367055
174	0xbf0a5e2f	-0.5404996
175	0x3e3c227a	0.18372527
176	0xbdfb19f8	-0.122608125
177	0xbebe14f3	-0.37125358
178	0xbec19bfe	-0.37814325
179	0xbe74aef4	-0.23894864
180	0x3e82dcb3	0.25559005
181	0x3e9a3c22	0.30124003
182	0xbe1545d8	-0.14577425
183	0xbf0f03b6	-0.5586504
184	0xbeb12320	-0.3459711
185	0x3d9e8d5d	0.07741807
186	0xbf16fb3b	-0.589771
187	0xbf071720	-0.5276966
188	0x3ea4f94e	0.32221454
189	0x3e0dd2cc	0.13849944
190	0x3b774c67	0.0037734748
191	0xbece7209	-0.40321377
192	0xbe7deabe	-0.24796578
193	0xbdbd1a7e	-0.092335686
194	0xbe4717b9	-0.19442643
195	0xbdcfe4d0	-0.101510644
196	0xbe3936aa	-0.18087259
197	0xbd465425	-0.04842009
198	0xbb0c8cc7	-0.0021446215
199	0x3e498522	0.19679692
200	0xbe43375a	-0.19064084
201	0x3ed77445	0.42080894
202	0xbe71b359	-0.23603572
203	0xbe2b281c	-0.1671452
204	0x3f151261	0.5823117
205	0x3e63a27b	0.2222995
206	0xbeebb80c	-0.46038854
207	0xbf33f80f	-0.7030038
208	0x3de153f6	0.110023424
209	0x3a945c06	0.0011318929
210	0xbe11e874	-0.1424883
211	0xbf23da84	-0.64005303
212	0x3e98a84e	0.29815906
213	0xbd914b5f	-0.07094454
214	0xbf1a6fd3	-0.6032688
215	0xbe171cc0	-0.14757061
216	0xbd696d9e	-0.056989305
217	0x3e8bf7a2	0.27337366
218	0x3f5cd729	0.8626581
219	0x3eaf1186	0.34193057
220	0x3f3f7a26	0.7479576
221	0xbf0ff493	-0.56232566
222	0x3f01f11f	0.50758547
223	0x3ec432ee	0.38320106
224	0xbe5ef5db	-0.21773474
225	0xbe1f999f	-0.15585946
226	0x3e5dacaa	0.21647897
227	0xbbf8462c	-0.0075767245
228	0x3e281ce9	0.16417278
229	0x3ee0ca7b	0.4390448
230	0xbe583089	-0.21112265
231	0xbee4e52f	-0.44706103
232	0x3ce34353	0.027742064
233	0x3d5b10ce	0.053482823
234	0x3ccc37c3	0.024928933
235	0xbf0562c4	-0.5210383
236	0x3d1297f8	0.03578946
237	0x3ebb36b4	0.36565173
238	0xbf1554a8	-0.583323
239	0xbf0f147a	-0.5589062
240	0x3ea547e7	0.3228142
241	0xbe488619	-0.19582404
242	0x3e684108	0.22681057
243	0x3e2876a6	0.16451511
244	0xbed29067	-0.41125795
245	0x3e931f6e	0.28734916
246	0x3e9ae084	0.30249417
247	0xbf41a3f1	-0.7564078
248	0x3ad8a0ee	0.0016527453
249	0xbdb31a7b	-0.08745285
250	0xbd030b86	-0.03199341
251	0xbef7545a	-0.48306543
252	0xbf0edbb3	-0.55803984
253	0xbe1a444d	-0.15065117
254	0xbdc79210	-0.09744656
255	0xbe23b511	-0.1598704

lineal1.bias f4 [256]
0	0x3cc8a927	0.02449472
1	0x3d9c3535	0.07627336
2	0x3f240319	0.64067227
3	0xbdad91f9	-0.08475108
4	0x3cc88d0b	0.024481317
5	0xbed474dc	-0.41495407
6	0x3d1cc120	0.038270116
7	0xbf1db324	-0.6160147
8	0xbe0bdd10	-0.13658547
9	0xbed763a4	-0.42068207
10	0xbed93aa4	-0.42427552
11	0x3e83ef12	0.25768334
12	0xbe03495b	-0.12820952
13	0xbe0c95f8	-0.13729084
14	0xbe91d9a4	-0.2848636
15	0x3de24a52	0.11049332
16	0x3e88f88e	0.26752132
17	0xbd303611	-0.04302031
18	0x3d9d6cc0	0.07686758
19	0xbe80a887	-0.25128576
20	0xbea54f22	-0.32286936
21	0x3d8c7eea	0.068601444
22	0x3e8f0e12	0.27940422
23	0xbe4585a8	-0.19289267
24	0xbe1309c8	-0.143592
25	0xbef05315	-0.46938387
26	0xbe37cf9f	-0.17950295
27	0xbec5850a	-0.38578063
28	0x3d6b3422	0.057422765
29	0xbe8f8027	-0.2802746
30	0xbd54d8b2	-0.05196447
31	0xbd9b80ea	-0.07592948
32	0x3eb0cf7b	0.34533295
33	0xbe58f668	-0.21187747
34	0xbde3f2d5	-0.11130301
35	0xbea0a63d	-0.3137683
36	0x3ed018b3	0.40643844
37	0xbe997358	-0.29970813
38	0x3f3670aa	0.7126566
39	0xbe8e1386	-0.2774927
40	0x3e63c1e7	0.22241937
41	0xbe3bed80	-0.18352318
42	0xbe8fb9ea	-0.2807153
43	0xbd93d46e	-0.07218252
44	0xbe974b8d	-0.29549828
45	0x3e136f5c	0.14397949
46	0xbea65d84	-0.32493222
47	0xbe85003c	-0.2597674
48	0xbd1c89bd	-0.038217295
49	0x3e15d6b9	0.14632691
50	0xbea9d0c6	-0.33167094
51	0xbe8caa93	-0.27473888
52	0xbc026a45	-0.007959907
53	0xbe9c09aa	-0.30476123
54	0x3e243c8a	0.16038719
55	0xbe34c990	-0.17655015
56	0xbd750e4f	-0.0598281
57	0xbe45ac20	-0.19303942
58	0x3ed66e69	0.4188111
59	0xbdbb561e	-0.09147285
60	0x3f196076	0.5991281
61	0xbe05b0da	-0.13055745
62	0x3d597260	0.053087592
63	0x3e32999e	0.17441413
64	0xbf121fbd	-0.5707968
65	0x3f188f5d	0.59593755
66	0x3ea9787d	0.33099738
67	0xbeb69031	-0.35656884
68	0x3e3bc5b2	0.18337134
69	0xbea0fdb8	-0.31443572
70	0xbe96994a	-0.29413825
71	0xbe37b669	-0.17940678
72	0x3e05ae2f	0.13054727
73	0xbe810a7d	-0.25203314
74	0xbe37b0fe	-0.17938611
75	0x3e89b746	0.2689764
76	0xbd1d1333	-0.038348388
77	0xbeb2af91	-0.34899572
78	0xbc0f6e2f	-0.008754297
79	0x3e13e7db	0.14443915
80	0xbe846002	-0.25854498
81	0x3efc990d	0.49335518
82	0xbed888ab	-0.4229177
83	0xbc24a1f0	-0.0100483745
84	0xbdc2d594	-0.09513393
85	0x3ddbc6f6	0.10731308
86	0xbe5397bd	-0.20663352
87	0x3d7afbd9	0.061275337
88	0xbc49525b	-0.0122877015
89	0xbea60456	-0.32425183
90	0xbe28cc82	-0.16484264
91	0xbdb56311	-0.08856786
92	0x3f7fa1d6	0.9985632
93	0xbe95e734	-0.29277956
94	0xbee3be37	-0.4448106
95	0xbeb965a2	-0.36210352
96	0xbe6f915a	-0.23395291
97	0x3e1bf61f	0.15230606
98	0xbe50c5eb	-0.20388
99	0xbed29968	-0.41132665
100	0x3ebef445	0.37295738
101	0xbe40f564	-0.18843609
102	0xbc9354de	-0.017984804
103	0xbeb700fb	-0.35742936
104	0xbb888185	-0.0041658306
105	0x388503ae	6.3426196e-05
106	0xbd8bb7d5	-0.068221726
107	0xbeb97def	-0.36228892
108	0xbe7f850e	-0.249531
109	0xbe5740a9	-0.2102076
110	0x3e165c76	0.14683709
111	0xbe470045	-0.19433697
112	0xbecfc828	-0.40582395
113	0xbeb84c2b	-0.35995612
114	0xbe81b160	-0.2533064
115	0x3e40beda	0.18822804
116	0xbe06b4f5	-0.13154967
117	0xbedd1382	-0.43178946
118	0xbdc02612	-0.09382261
119	0x3cbc56d5	0.022990623
120	0xbe70ed6f	-0.23528074
121	0xbea3c312	-0.31984764
122	0xbe8d4264	-0.27589715
123	0x3d0764f6	0.03305527
124	0x3e80c019	0.2514656
125	0xbededa2f	-0.43525836
126	0xbe8b1424	-0.27163804
127	0x3ea4c80b	0.3218387
128	0xbe8b79c4	-0.27241337
129	0x3d566870	0.052345693
130	0xbe0ac737	-0.13552557
131	0xbc13d098	-0.009021901
132	0x3e0031d6	0.12519011
133	0xbe3048af	-0.17215227
134	0xbef5c795	-0.48003832
135	0xbe5d07c8	-0.21585
136	0xbe94d0a8	-0.29065442
137	0xbe90a410	-0.2825017
138	0xbe72bf34	-0.2370575
139	0xbb988df4	-0.004655594
140	0x3cfd5039	0.030922042
141	0xbe43c72e	-0.1911895
142	0xbda1c3a1	-0.078986414
143	0xbed9241f	-0.4241037
144	0xbe33aee4	-0.17547184
145	0xbeb8c202	-0.36085516
146	0xbdf2fab3	-0.11864223
147	0xbe984db7	-0.29746792
148	0xbd2c60f4	-0.04208465
149	0xbe298967	-0.16556321
150	0xbee075ba	-0.43839818
151	0xbec052ec	-0.37563264
152	0xbe1d5330	-0.15363765
153	0xbe3e6016	-0.18591341
154	0xbe23acce	-0.15983889
155	0x3e0c9a38	0.13730705
156	0xbe479c5b	-0.19493239
157	0xbe92d788	-0.28680062
158	0x3d27a226	0.04092612
159	0xbe7155eb	-0.23567931
160	0xbdb57e81	-0.08862019
161	0x3da20078	0.07910246
162	0xbef45b3b	-0.47725853
163	0xbe6fa45a	-0.23402539
164	0xbea5bcfc	-0.32370746
165	0xbd9462f1	-0.07245434
166	0xbdaf9b55	-0.08574549
167	0xbebbc6e2	-0.36675173
168	0xbc9c93f4	-0.019113518
169	0x3eeab371	0.45840028
170	0x3c914831	0.017734619
171	0xbe91bc47	-0.28463957
172	0xbec762aa	-0.38942462
173	0xbe4bb3b4	-0.1989277
174	0x3e8b029c	0.27150428
175	0xbe2c4826	-0.16824397
176	0x3d3c0be8	0.045909792
177	0xbd8445e5	-0.06458644
178	0x3eb49e2d	0.3527693
179	0x3d99767b	0.074933015
180	0x3c5bc4fa	0.013413662
181	0xbd9ff0b9	-0.07809586
182	0xbdc69866	-0.096970364
183	0x3d7db345	0.061938543
184	0xbe6654db	-0.22493307
185	0xbea1684e	-0.3152489
186	0xbe4315d7	-0.190513
187	0xbd36e367	-0.04465046
188	0xbe926ed0	-0.28600168
189	0xbe082d50	-0.13298535
190	0xbe9d3ac8	-0.3070891
191	0x3e039089	0.12848105
192	0x3dc36f11	0.095426686
193	0x3dbec81e	0.09315513
194	0xbece556f	-0.40299556
195	0x3da4a312	0.08038916
196	0xbe5b3166	-0.21405563
197	0xbe84fc04	-0.25973523
198	0xbe8072c0	-0.25087547
199	0x3d14b4a9	0.036305103
200	0xbe753f67	-0.23949967
201	0x3e0bdc85	0.1365834
202	0xbe78b548	-0.24287903
203	0xbd6ed9b1	-0.058313075
204	0x3e09a0e3	0.1344028
205	0xbe91d44a	-0.28482276
206	0xbe34f232	-0.17670515
207	0xba0910d6	-0.0005228644
208	0xbdea2524	-0.11432865
209	0x3e306b6c	0.17228478
210	0xbe4500a4	-0.19238526
211	0xbe9c7d50	-0.30564356
212	0xbe7a78ab	-0.24460094
213	0xbe1e4fa5	-0.1546007
214	0xbe2f495e	-0.17117831
215	0xbdf2bb20	-0.118520975
216	0xbe86cac4	-0.26326573
217	0xbdc2bfe0	-0.095092535
218	0xbe27a7eb	-0.1637265
219	0xbdc44da5	-0.09585122
220	0xbed28b97	-0.41122124
221	0xbd0cb248	-0.03434971
222	0xbe2a0cb9	-0.16606416
223	0xbee6e96b	-0.4509996
224	0xbe9faf87	-0.31188604
225	0x3d299807	0.04140475
226	0xbccbada2	-0.024863068
227	0xbeac3860	-0.3363676
228	0x3e9dc6e1	0.30815795
229	0x3dd4869c	0.10377237
230	0xbe5dbf82	-0.21655086
231	0xbe72d194	-0.2371276
232	0x3e9f6a5a	0.31135827
233	0xbde6b08f	-0.11264145
234	0xbdd7a3a1	-0.105292566
235	0xbe017988	-0.12644017
236	0xbdde4ec6	-0.108548686
237	0xbe36ebdd	-0.17863412
238	0x3b0e4082	0.002170593
239	0xbed8f987	-0.42377874
240	0xbdb04058	-0.086060226
241	0xbe7711f5	-0.24127944
242	0x3f5760d9	0.8413215
243	0xbe97425b	-0.29542813
244	0xbe6b84f1	-0.22999932
245	0xbe7c1129	-0.24615921
246	0x3db28cb5	0.08718244
247	0xbe32a149	-0.17444338
248	0x3e596414	0.21229583
249	0xbe7df08d	-0.24798794
250	0xbe2f9ef4	-0.1715048
251	0xbe87fcbd	-0.26560012
252	0x3c2cd614	0.010549087
253	0xbef57610	-0.47941637
254	0xbe8485a2	-0.25883204
255	0x3e2fb84e	0.1716015

lineal2.weight f4 [3, 256]
0	0x3e9895c8	0.29801774
1	0x3ed9bba3	0.42525968
2	0x3f0faceb	0.56123227
3	0x3e876ffc	0.26452625
4	0xbed47713	-0.41497096
5	0xbc8588f7	-0.016300661
6	0x3c276a2f	0.010218187
7	0x3b0b764b	0.0021280225
8	0xbe9f51b9	-0.31117037
9	0xbe4642a7	-0.19361363
10	0xbb40bc77	-0.0029409209
11	0x3d194fe0	0.03742969
12	0x3ea4fca9	0.32224014
13	0x3d451e9e	0.048124902
14	0xbcf6e024	-0.030136175
15	0x3e8e21fa	0.27760297
16	0x3e10c94f	0.14139293
17	0x3caf1825	0.021373818
18	0x3ea3413f	0.31885716
19	0xbe9dad83	-0.3079644
20	0xbe9a4b7f	-0.30135724
21	0x3e55c638	0.20876396
22	0x3e5ac6e7	0.21364938
23	0xbd94a59c	-0.0725815
24	0xbd49b27a	-0.049242474
25	0x3c08122b	0.008305113
26	0xbbc4229f	-0.0059855725
27	0xbe1cf5b5	-0.15328105
28	0xbd0f1451	-0.034931485
29	0x3d6432e6	0.055712603
30	0x3e534ad5	0.20634015
31	0xbbcb39e1	-0.006201968
32	0x3e49928b	0.19684808
33	0xbe39fe66	-0.18163452
34	0xb5f9dc0a	-1.8615985e-06
35	0xbec86560	-0.39139843
36	0x3ea76e8e	0.32701534
37	0xbe2a24e0	-0.16615629
38	0x3edecc21	0.43515113
39	0xbe1814d7	-0.148517
40	0x3e70337f	0.23457144
41	0xbe9e58c2	-0.30927092
42	0xbd7eaf6e	-0.06217902
43	0xbcd50713	-0.02600435
44	0x3d181fa9	0.03713957
45	0xba3084a5	-0.0006733633
46	0xbe4b2aeb	-0.1984059
47	0xbdfd9c26	-0.123832986
48	0xbf2e4f2b	-0.6808955
49	0x3e9628d9	0.2932804
50	0xbcbbebae	-0.02293953
51	0xbd2417e3	-0.040061843
52	0x3e936c78	0.28793693
53	0xbd75d1d1	-0.06001455
54	0x3d2b0f9a	0.041762926
55	0xbeab1e54	-0.33421576
56	0x3ef32242	0.47487074
57	0xbec315a7	-0.38102457
58	0x3ed7be79	0.42137507
59	0x3cb43463	0.021997636
60	0x3e780a07	0.24222575
61	0xbc3f907a	-0.011692161
62	0xbe481bb9	-0.19541825
63	0x3e32ab43	0.17448144
64	0xbd83ba00	-0.06431961
65	0x3e3e8d31	0.18608548
66	0x3f12a84d	0.57288057
67	0xbdb903f1	-0.09033955
68	0x3e3dac13	0.18522672
69	0xbf113f7e	-0.56737506
70	0x3d49aa20	0.04923451
71	0xbeab4b46	-0.33455867
72	0x3bfa5b66	0.00764029
73	0xbda24908	-0.07924086
74	0xbe8b677b	-0.27227387
75	0x3d6d8762	0.05799044
76	0xbe454375	-0.19264014
77	0x3c025c37	0.007956556
78	0x3e78d694	0.24300605
79	0xbcf0a7f8	-0.029376969
80	0x3aed744c	0.0018116324
81	0x3e5752a8	0.21027625
82	0xbd820ac2	-0.06349708
83	0xbe3ef973	-0.18649845
84	0x3bbacad5	0.005700449
85	0x3e9c20e8	0.30493855
86	0xbd7a4101	-0.06109715
87	0x3da6a97b	0.081377946
88	0xbeed0655	-0.46293893
89	0xbb531b2a	-0.0032212236
90	0x3dec9336	0.11551516
91	0x3c8133fe	0.015771862
92	0x3e8719e8	0.26386952
93	0xba59daba	-0.0008310486
94	0xbd398445	-0.045292158
95	0xbd17710c	-0.036973044
96	0xbe90eef5	-0.2830731
97	0x3df5addc	0.11996052
98	0x3cce1193	0.025154864
99	0xbe58f504	-0.21187216
100	0x3e98299b	0.29719242
101	0xbec85662	-0.39128405
102	0x3ea6d310	0.32582903
103	0xbf07db8c	-0.53069377
104	0xbe9b3d21	-0.30320075
105	0x3ed9ce5b	0.4254025
106	0x3d6ae59e	0.057347886
107	0xbe2411a6	-0.16022357
108	0x3cdf2a08	0.027241722
109	0xbe4e746f	-0.20161603
110	0x3de44c83	0.11147406
111	0xbec6234e	-0.3869881
112	0xbe827951	-0.25483182
113	0x3c532d47	0.012889213
114	0x3d1bf80e	0.03807836
115	0x3d7d36be	0.061819784
116	0x3cf3597b	0.029705754
117	0x3d8ae6e8	0.06782323
118	0x3debef20	0.11520219
119	0xbebfdab3	-0.37471542
120	0xbd879972	-0.06621064
121	0xbcc438fc	-0.023952954
122	0xbd3153ac	-0.043292686
123	0x3e314dd5	0.17314847
124	0x3e811e0f	0.25218245
125	0xbcf69275	-0.030099133
126	0xbecc75dd	-0.39933673
127	0x3e5d5ab9	0.21616639
128	0xbcedb728	-0.029018
129	0x3cea306a	0.028587539
130	0x3e27d91d	0.16391416
131	0x3e7da1cb	0.2476875
132	0x3cabaf72	0.020957682
133	0xbd06fdd2	-0.032956906
134	0xbd20cf1c	-0.039260015
135	0x3c816ae5	0.015798042
136	0xbcf07fb4	-0.029357769
137	0xbc930e38	-0.017951116
138	0xbd5961fd	-0.053071965
139	0xbe5f35cb	-0.21797864
140	0x3e9b43f8	0.30325294
141	0xbe3a1999	-0.18173827
142	0xbec0a076	-0.37622422
143	0x3c0df6e8	0.008664824
144	0xbea70f08	-0.32628655
145	0xbc61ad58	-0.0137742385
146	0x3e0e400c	0.1389162
147	0xbbddee10	-0.006772764
148	0xbcdcd9f9	-0.026959406
149	0x3e5cf884	0.21579176
150	0xbd4e0ce5	-0.050305266
151	0xbdb9a27c	-0.090641946
152	0x3cf22c9c	0.029562287
153	0x3d76a7c9	0.060218606
154	0xbd44ac94	-0.048016146
155	0x3cc388b1	0.02386889
156	0xbd81f6f2	-0.06345929
157	0xbe238455	-0.1596845
158	0xbea938de	-0.330512
159	0xbc85afa4	-0.016319104
160	0xbe6f13d0	-0.23347402
161	0x3f277211	0.65408427
162	0xbd102208	-0.035188705
163	0xbf0f85b6	-0.560634
164	0x3c9864a4	0.018602677
165	0xbe2e9074	-0.17047292
166	0xbd188277	-0.037233796
167	0xbe33d6d7	-0.17562424
168	0xbb10fc02	-0.0022122865
169	0x3e868321	0.26271918
170	0xbeaaaeb4	-0.33336413
171	0x3c15db10	0.009146467
172	0xbcd380cf	-0.025818257
173	0xbe03af7b	-0.12859909
174	0x3ea5f06a	0.32409984
175	0xbd043d9b	-0.032285314
176	0x3ecc3d03	0.39890298
177	0xbe7cbd2a	-0.24681535
178	0x3e89f33a	0.2694338
179	0xbe8898c2	-0.26679045
180	0xbefba8d6	-0.4915225
181	0xbddddb15	-0.10832802
182	0xbb9808c4	-0.004639717
183	0x3d6a4360	0.05719316
184	0xbbf46a1d	-0.0074589388
185	0xbcb47abd	-0.022031182
186	0xb9401391	-0.00018317836
187	0xbeb35da7	-0.3503239
188	0xbea67ae6	-0.3251564
189	0xbe80cedc	-0.2515782
190	0xbe599e27	-0.21251737
191	0x3f2b1328	0.66826105
192	0x3da36f21	0.079801805
193	0xbe319bff	-0.17344664
194	0xbb151d51	-0.002275307
195	0x3e76e084	0.24109083
196	0x3ee2bf30	0.4428649
197	0xbb3e97ec	-0.0029082252
198	0xbedd9f55	-0.43285623
199	0x3cf361cf	0.029709725
200	0x3d60e276	0.05490347
201	0xbd7d4ec0	-0.06184268
202	0x3d93f16a	0.072237805
203	0x3e8fb252	0.28065735
204	0x3f02ddd8	0.51119757
205	0xbbd26c50	-0.0064216033
206	0x3c171c4e	0.009223057
207	0xbeb6cf77	-0.35705158
208	0xbecdd3e7	-0.4020073
209	0x3eba2b03	0.3636094
210	0x3cd644af	0.026155798
211	0x3d51eeef	0.051253255
212	0xbeb09e99	-0.34496
213	0xbd9624f1	-0.07331265
214	0xbb92f291	-0.0044844826
215	0x3d1e0cfd	0.038586605
216	0xbcd339f0	-0.025784463
217	0xbef9e786	-0.4880945
218	0xbde11da3	-0.10991981
219	0x3b9f9e42	0.0048711607
220	0xbb6dbcad	-0.003627579
221	0x3da40639	0.080089994
222	0x3ccf7a09	0.025326746
223	0xbe0ec03b	-0.13940518
224	0x3d32431b	0.043521028
225	0x3e4ce511	0.20009257
226	0xbc9f457e	-0.019442316
227	0xbddd9450	-0.10819304
228	0xbda13a34	-0.078724295
229	0x3f05b553	0.52229804
230	0xbe9594d6	-0.29215115
231	0x3bc4d41e	0.0060067317
232	0x3e84791c	0.2587365
233	0xbb8544dc	-0.0040670466
234	0xbeadff5e	-0.33983892
235	0x3e2b2bab	0.16715877
236	0xbea7d1ba	-0.32777196
237	0x3cd8a8e4	0.02644772
238	0x3d3412dc	0.0439633
239	0xbdd73add	-0.10509274
240	0xbbba0870	-0.0056772754
241	0xbcd8f425	-0.026483605
242	0x3e971168	0.29505467
243	0xbe7ed928	-0.24887526
244	0xbc807b4b	-0.01568379
245	0xbee91f48	-0.45531678
246	0xbf51d5fe	-0.8196715
247	0xbe8f4cf9	-0.27988413
248	0x3cc41c1a	0.023939181
249	0xbd0d47e2	-0.03449238
250	0xbb4142e4	-0.0029489333
251	0x3d29d877	0.041466203
252	0x3e9cccd6	0.30625027
253	0x3c061b49	0.008185216
254	0xbdb16625	-0.08662061
255	0x3e812e18	0.2523048

lineal2.bias f4 [3]
0	0x3e9d0cba	0.30673772
1	0x3d67a34d	0.05655222
2	0x3cd7a9be	0.026326057
