model/model.pth (torch, 16799 bytes, 4 tensors)

lineal1.weight f4 [256, 11]
-0.28792766 -0.046213787 0.36740896 -0.21705224 -0.25045022 -0.21884933 -0.014188244 0.1812908
-0.13280499 -0.18299659 -0.06455312 -0.1700331 0.02409703 0.4217813 -0.16308343 -0.068071835
-0.03531317 0.2083021 0.2240487 0.15414895 -0.038062636 -0.050554372 0.01823459 0.669712
0.09726931 -0.31893453 -0.28833243 0.12452959 0.025224015 -0.07265034 -0.1436808 0.2968245
0.1825651 0.18334788 0.0828573 -0.17301546 -0.1307761 -0.29727992 -0.048374366 0.28821528
0.119476564 -0.32043034 0.01891847 -0.11490844 -0.02236863 0.09766196 -0.3282293 0.035907466
-0.15302832 0.08390979 0.40145338 0.2723092 -0.27438557 0.08684436 -0.2800647 -0.21361029
-0.048773367 -0.19416615 0.25968692 -0.13382682 0.43898392 -0.29410797 0.19771753 -0.3010607
0.025622968 -0.5446437 0.36649552 0.02267836 0.021786632 -0.16946372 0.25519046 0.12486043
-0.09741673 0.17482401 -0.23873073 0.26338354 0.10900034 0.3053406 -0.07662763 0.34380895
-0.27137196 -0.04146881 -0.18405548 -0.14892125 0.24555284 0.12992807 -0.38733968 0.2136355
0.22039638 -0.064615235 0.30020723 0.05388358 0.111730635 -0.3453026 -0.4870816 -0.10397224
-0.17848934 0.39877698 0.3159075 0.13657627 -0.5474214 0.26777384 0.14042608 -0.24968629
-0.15271783 -0.30759376 -0.3104822 0.22855829 0.13447922 0.28996083 0.18713404 -0.28735158
0.49015746 0.36053953 0.048068393 0.1945748 0.19563721 -0.29731762 0.095467634 0.016683055
-0.29916632 -0.024370065 0.2873049 0.25767738 0.25464857 0.06315581 -0.30191478 0.15649608
0.16261381 0.34647083 -0.26313418 -0.2570018 -0.04004763 -0.355406 -0.0031020055 -0.13749054
0.1223661 -0.220708 0.3893755 0.28004384 -0.28483787 -0.2876488 -0.29327872 0.36914316
-0.27640873 0.43695965 0.012128187 0.018979413 0.21526144 0.038780574 -0.2768344 0.004233994
-0.31986502 -0.17039667 -0.412359 -0.12030685 -0.25939646 -0.21447642 0.30106258 0.03597329
0.34381473 0.058407288 -0.09205747 -0.16177437 -0.123740986 0.1861737 0.36946782 0.17561458
0.198945 -0.19737479 -0.023971373 0.10621608 -0.08730749 0.1047225 0.2972724 0.03718326
0.27095187 0.3190591 -0.3362206 -0.06666584 -0.11846406 -0.006768799 0.17938682 0.21775109
0.27025566 0.2070298 0.3034989 0.37791705 -0.5200677 0.4506625 -0.15563488 0.21777408
-0.3395113 0.19290958 0.24812755 -0.18950576 0.4186914 -0.14741829 0.10685874 0.3988798
-0.34466308 -0.009762398 0.22007771 -0.39082262 -0.023069302 -0.1970688 0.01834908 0.073536605
-0.17657198 -0.3120214 0.12804326 -0.043399762 0.13984643 -0.41580597 0.18257214 0.29603997
0.00795087 -0.35235307 -0.11341514 -0.1699252 0.11280234 0.101782374 0.16983132 -0.107924715
0.024728844 -0.28762984 0.054005735 -0.2137262 -0.038613126 -0.26792037 0.0079624755 -0.14780729
-0.020060783 -0.25470772 -0.371888 -0.24165541 0.18704861 0.14078367 -0.2812854 -0.23911795
-0.015933951 0.015868109 -0.15027724 0.05101636 0.012632077 -0.07715019 -0.2569604 -0.12979504
-0.0014066512 0.22915883 -0.07729623 -0.23981601 -0.19050205 -0.016801393 0.09105436 -0.2835976
00000000: 416b 93be ab4a 3dbd 071d bc3e f142 5ebe
00000010: 033b 80be 0a1a 60be cf75 68bc 4ca4 393e
00000020: 08fe 07be 7563 3bbe 6d34 84bd 281d 2ebe
00000030: 2267 c53c b8f3 d73e 58ff 26be 3f69 8bbd
00000040: 8ba4 10bd 254d 553e 066d 653e 39d9 1d3e
00000050: 91e7 1bbd 1a12 4fbd b560 953c 3f72 2b3f
00000060: 2235 c73d 634b a3be 4fa0 93be 5f09 ff3d
00000070: 98a2 ce3c b4c9 94bd 0f21 13be 62f9 973e
00000080: 58f2 3a3e 8cbf 3b3e 17b1 a93d f72a 31be
00000090: 2cea 05be 1335 98be 3324 46bd f490 933e
000000a0: 21b0 f43d 720f a4be e8fa 9a3c 1e55 ebbd
000000b0: 6b3e b7bc fe02 c83d ac0d a8be b513 133d
000000c0: 75b3 1cbe e5d8 ab3d 4c8b cd3e 1d6c 8b3e
000000d0: 447c 8cbe 75db b13d a464 8fbe a8bc 5abe
000000e0: 95c6 47bd 7ed3 46be aff5 843e e609 09be
000000f0: 80c2 e03e 5295 96be 7776 4a3e a124 9abe
00000100: 42e7 d13c c56d 0bbf 4da5 bb3e f8c7 b93c
00000110: e179 b23c e687 2dbe 53a8 823e d3b6 ff3d
00000120: 6c82 c7bd 1105 333e d475 74be 35da 863e
00000130: 923b df3d 9a55 9c3e f2ee 9cbd ba07 b03e
00000140: 44f1 8abe 33db 29bd 0a79 3cbe d07e 18be
00000150: 3472 7b3e dd0b 053e 6351 c6be 44c3 5a3e
00000160: 97af 613e fe54 84bd c3b4 993e 07b5 5c3d
00000170: 08d3 e43d 81cb b0be c262 f9be 66ef d4bd
00000180: e9c5 36be 7f2c cc3e a1be a13e a6da 0b3e
00000190: cf23 0cbf a719 893e dbcb 0f3e c3ad 7fbe
000001a0: 1062 1cbe ee7c 9dbe 86f7 9ebe 2f0b 6a3e
000001b0: ecb4 093e bf75 943e 11a0 3f3e bf1f 93be
000001c0: ebf5 fa3e a398 b83e 5de3 443d 9e3e 473e
000001d0: 1f55 483e 043a 98be 8984 c33d e7aa 883c
000001e0: 542c 99be bba3 c7bc a119 933e 4aee 833e
000001f0: 4c61 823e d557 813d 9394 9abe 8240 203e
00000200: 3c84 263e a064 b13e 86b9 86be bd95 83be
00000210: fc08 24bd c6f7 b5be 044b 4bbb 52ca 0cbe
00000220: 149b fa3d 4701 62be 3a5c c73e e861 8f3e
00000230: 45d6 91be b446 93be a128 96be 5500 bd3e
00000240: 7285 8dbe 2db9 df3e 4eb5 463c b77a 9b3c
00000250: 7f6d 5c3e 61d8 1e3d 3dbd 8dbe 51bd 8a3b
00000260: 59c5 a3be 777c 2ebe b820 d3be 7063 f6bd
00000270: 9dcf 84be b59f 5bbe e024 9a3e bb58 133d
00000280: 7c08 b03e 7b3c 6f3d a088 bcbd 2ea8 25be
00000290: ea6b fdbd 52a4 3e3e e32a bd3e 4fd4 333e
000002a0: 3db8 4b3e 9e1c 4abe 9d5f c4bc d187 d93d
000002b0: 45ce b2bd c078 d63d 1734 983e 794d 183d
000002c0: 34ba 8a3e b75b a33e 1b25 acbe 1a88 88bd
000002d0: 499d f2bd cdcc ddbb 2eb1 373e 24fa 5e3e
000002e0: f35e 8a3e 9fff 533e 3564 9b3e 587e c13e
000002f0: 2823 05bf 3cbd e63e c05e 1fbe 2b00 5f3e
00000300: 6dd4 adbe 178a 453e 2615 7e3e cc0d 42be
00000310: b85e d63e d2f4 16be c1d8 da3d f939 cc3e
00000320: ae77 b0be 77f2 1fbc 0d5c 613e e719 c8be
00000330: d5fb bcbc 67cc 49be cf50 963c 5c9a 963d
00000340: 49cf 34be 45c1 9fbe c61d 033e f3c3 31bd
00000350: e733 0f3e 85e4 d4be 31f4 3a3e 8d92 973e
00000360: 5e44 023c 9f67 b4be 3246 e8bd df00 2ebe
00000370: ea04 e73d 4773 d03d 43e8 2d3e a207 ddbd
00000380: 2594 ca3c 3844 93be 1e35 5d3d 0adb 5abe
00000390: cc28 1ebd dc2c 89be 0b75 023c cb5a 17be
000003a0: 8356 a4bc 0d69 82be 1b68 bebe 8474 77be
000003b0: ac89 3f3e 9829 103e a404 90be 56db 74be
000003c0: eb87 82bc d6fd 813c 47e2 19be 88f6 503d
000003d0: c5f6 4e3c eb00 9ebd 5090 83be fee8 04be
000003e0: 625f b8ba 9da8 6a3e 7c4d 9ebd 5492 75be
000003f0: f812 43be 13a3 89bc b57a ba3d b433 91be

lineal1.bias f4 [256]
-0.36486223 0.38695735 0.041085683 -0.15763474 -0.1956866 0.090031885 -0.06798978 -0.061387263
0.066682786 -0.00048768288 -0.04652115 -0.046518553 -0.18889138 0.0019464374 0.5624182 0.15394402
-0.19569668 -0.070913434 0.17992459 0.37362245 -0.3170303 0.41368788 -0.2984705 0.12355258
0.15405007 -0.24859655 -0.0025501084 0.006119588 -0.27333915 -0.03217289 -0.14580852 0.52667737
0.22888707 0.11781517 -0.21161129 -0.2250249 0.21662772 0.24249703 0.19482069 -0.043390013
-0.06680583 -0.17245878 -0.10268575 0.014370225 -0.1774802 0.26625606 0.005828525 -0.25349748
-0.1780804 0.30609727 0.049685244 -0.058855142 -0.08680106 -0.39731118 -0.03649158 -0.07378847
-0.14153446 0.08484438 0.11230652 0.041428674 -0.16621318 -0.19556583 -0.26968366 -0.2531672
0.14414215 -0.42476907 -0.20255353 0.42815644 -0.007739158 -0.33165416 -0.06344571 -0.21694772
-0.15348066 0.060144495 -0.18724686 -0.05744028 -0.46000826 0.22265829 0.063546695 -0.09454903
-0.1328325 -0.37537476 0.043946333 0.17811882 -0.06855473 -0.060339402 0.047302123 -0.18378991
-0.18566762 -0.17848605 0.041413974 -0.3944521 -0.10074188 0.23752718 -0.26938382 -0.1547636
0.09375931 0.062351134 0.1315456 0.43604434 -0.057600427 -0.26138434 -0.062886 0.26808792
0.09202256 -0.0052435785 0.009157483 -0.10613756 0.15958712 0.12448599 -0.1524281 0.109196804
-0.2485009 -0.031566646 -0.028929573 -0.28804976 -0.23341964 0.12526034 -0.17184077 -0.20241022
-0.10777015 -0.28167865 0.09127253 0.37030974 -0.113826215 -0.14045793 -0.068774804 -0.11695428
-0.15981047 0.3096638 -0.2003579 0.11717597 0.18607055 0.10308093 0.13511887 -0.11684669
0.34206098 -0.02783304 -0.3978313 0.1516763 -0.16227475 -0.0951746 0.10925276 0.22003716
-0.33477142 -0.06788329 -0.26557258 -0.23882163 0.29875514 -0.14257132 -0.24084139 -0.10865855
-0.21375297 0.083112 -0.17972165 -0.1438847 0.22952183 0.34947294 0.082978785 -0.16933128
0.43926284 0.04081761 -0.2020677 0.2960983 -0.09959222 -0.029084958 -0.2827798 -0.45350492
-0.022971254 -0.061362192 -0.20702569 0.22313322 0.29505402 0.3477955 -0.31081843 -0.34435982
-0.33975777 0.04927979 0.40264037 -0.23088922 0.0014377093 -0.1558605 -0.13949142 0.1306821
-0.19226877 -0.02677161 0.13696446 -0.07758357 0.46374527 0.2528646 -0.018168911 -0.30586332
-0.019010622 -0.013914601 -0.1301202 0.2624625 0.23089635 0.011974381 -0.0017372664 -0.01745864
-0.042503368 -0.18974884 -0.12953229 0.011237677 -0.23168299 -0.04814907 0.49006626 -0.007735222
-0.1025292 -0.1344461 0.06503798 0.13051638 -0.31651962 0.26452675 0.1513151 -0.12399323
-0.1979996 -0.0028628954 0.20557304 -0.14678223 -0.017933331 -0.06157689 -0.06584039 -0.016030092
0.21806037 -0.0057442477 0.022893688 -0.17460936 -0.27240312 -0.26384148 -0.19613305 -0.16296989
-0.054449886 0.44160038 -0.02527717 -0.1306822 -0.057136934 -0.07284377 0.2601026 0.16853712
-0.039433572 0.29366085 -0.08076087 -0.30028608 -0.14171244 -0.16082434 -0.09211967 0.2907219
-0.35619706 -0.26977605 -0.23458648 -0.22232735 0.10087118 0.03880558 0.20071326 -0.3264509
00000000: 39cf babe 461f c63e 7649 283d 006b 21be
00000010: 1162 48be a362 b83d 3a3e 8bbd 3671 7bbd
00000020: fc90 883d b0af ffb9 f68c 3ebd 3d8a 3ebd
00000030: be6c 41be 9a1f ff3a a4fa 0f3f 80a3 1d3e
00000040: b664 48be 103b 91bd 273e 383e 714b bf3e
00000050: cc51 a2be e6ce d33e 20d1 98be 2309 fd3d
00000060: 4dbf 1d3e 1890 7ebe b81f 27bb d386 c83b
00000070: 1cf3 8bbe b8c7 03bd d44e 15be 54d4 063f
00000080: 5f61 6a3e 1449 f13d a1b0 58be ed6c 66be
00000090: a8d3 5d3e 2451 783e 137f 473e bab9 31bd
000000a0: 7fd1 88bd 0999 30be e84c d2bd 1871 6b3c
000000b0: 5fbd 35be b752 883e 36fd be3b 6cca 81be
000000c0: b55a 36be c8b8 9c3e c182 4b3d 1712 71bd
000000d0: c1c4 b1bd 5f6c cbbe 3278 15bd 691e 97bd
000000e0: 69ee 10be e4c2 ad3d f600 e63d 1db1 293d
000000f0: ca33 2abe 6942 48be fa13 8abe 229f 81be
00000100: 009a 133e 557b d9be 316a 4fbe 5237 db3e
00000110: c398 fdbb 93ce a9be d3ef 81bd 8b27 5ebe
00000120: 092a 1dbe 135a 763d a4bd 3fbe 8046 6bbd
00000130: 3486 ebbe 8900 643e c524 823d eca2 c1bd
00000140: 3e05 08be 1f31 c0be 1201 343d c864 363e
00000150: 6c66 8cbd 7326 77bd dfbf 413d 6c33 3cbe
00000160: a71f 3ebe 0cc5 36be b3a1 293d a0f5 c9be
00000170: c251 cebd 533a 733e adec 89be 597a 1ebe
00000180: e204 c03d e763 7f3d e4b3 063e 3441 df3e
00000190: 6dee 6bbd 2bd4 85be 60ca 80bd d242 893e
000001a0: 5376 bc3d 53d2 abbb 4409 163c a65e d9bd
000001b0: ce6a 233e 83f2 fe3d 1d16 1cbe 93a2 df3d
000001c0: 0577 7ebe 074c 01bd b6fd ecbc 427b 93be
000001d0: 8f05 6fbe 3f44 003e 07f7 2fbe a044 4fbe
000001e0: 99b6 dcbd 2f38 90be 18ed ba3d 3d99 bd3e
000001f0: b81d e9bd 34d4 0fbe ced9 8cbd ba85 efbd
00000200: 5ba5 23be 418c 9e3e 9f2a 4dbe f4f9 ef3d
00000210: 4789 3e3e 181c d33d 9a5c 0a3e 514d efbd
00000220: 9e22 af3e 1e02 e4bc 8bb0 cbbe 0851 1b3e
00000230: 5a2b 26be e7ea c2bd e9bf df3d 6c51 613e
00000240: 2967 abbe 6506 8bbd 21f9 87be a88d 74be
00000250: 6ff6 983e 37fe 11be 209f 76be 6088 debd
00000260: 0fe2 5abe a036 aa3d f408 38be 8356 13be
00000270: c507 6b3e 1eee b23e c8f0 a93d 2e65 2dbe
00000280: 0fe7 e03e 5e30 273d d6ea 4ebe 329a 973e
00000290: 01f7 cbbd 9443 eebc 84c8 90be cc31 e8be
000002a0: 362e bcbc ec56 7bbd 8bfe 53be 097d 643e
000002b0: 5211 973e 4012 b23e 9823 9fbe ee4f b0be
000002c0: bbf4 adbe 9bd9 493d e126 ce3e 396e 6cbe
000002d0: 8571 bc3a e599 1fbe d7d6 0ebe 87d1 053e
000002e0: 1be2 44be 2350 dbbc 6940 0c3e 22e4 9ebd
000002f0: 0570 ed3e 7877 813e f8d6 94bc 1e9a 9cbe
00000300: 2abc 9bbc 11fa 63bc 3b3e 05be 7c61 863e
00000310: 1870 6c3e 3230 443c fdb4 e3ba 6c05 8fbc
00000320: 0318 2ebd 854d 42be 1da4 04be 3c1e 383c
00000330: 4e3e 6dbe f637 45bd f7e9 fa3e bf77 fdbb
00000340: d4fa d1bd 3dac 09be a232 853d 16a6 053e
00000350: dc0e a2be 0d70 873e 58f2 1a3e 2af0 fdbd
00000360: 68c0 4abe 6a9f 3bbb bd81 523e 154e 16be
00000370: ece8 92bc 0d38 7cbd 54d7 86bd 8a51 83bc
00000380: 384b 5f3e 3e3a bcbb 8b8b bb3c cccc 32be
00000390: 6c78 8bbe 3b16 87be 1ad7 48be 94e1 26be
000003a0: d806 5fbd 7219 e23e 1112 cfbc 8ed1 05be
000003b0: 6b08 6abd 1d2f 95bd 2b2c 853e ff94 2c3e
000003c0: 1985 21bd b75a 963e f465 a5bd 19bf 99be
000003d0: 111d 11be 23af 24be 3da9 bcbd 80d9 943e
000003e0: 765f b6be 1620 8abe 7037 70be c8a9 63be
000003f0: 8d95 ce3d 9af2 1e3d c787 4d3e 9324 a7be

lineal2.weight f4 [3, 256]
0.05439683 0.15519412 0.23176745 -0.05819478 -0.1318798 0.36052117 -0.17827271 -0.088887915
-0.37083897 -0.20772636 -0.043363564 0.11909694 -0.19727747 -0.019685414 0.27140486 0.047888555
-0.20425922 -0.36690146 0.033686485 0.27998814 0.06496128 0.33944914 -0.0040763286 -0.023449069
-0.13140401 -0.30331293 -0.3021053 -0.0721757 -0.3126895 -0.070254765 -0.59168255 0.25355232
0.012638092 0.023230266 -0.09848488 -0.047647115 -0.23059176 0.25359637 0.2959618 -0.19422111
-0.11696309 -0.7045086 0.04095189 -0.22638084 -0.06222531 0.07526063 0.04361678 -0.10206748
-0.2345266 0.12667337 0.41255358 0.29784936 -0.2800356 -0.36845547 -0.44022828 -0.21522883
-0.25129783 -0.023567393 -0.26582465 -0.3675641 -0.5165471 0.18177804 -0.012875117 -0.22793633
0.0723975 0.2567488 -0.21276231 0.43527362 0.28086329 -0.32086235 -0.07953864 -0.054201987
-0.59052736 0.1819477 -0.21375395 0.27594215 -0.043737497 0.30391154 0.16356914 -0.42584625
-0.0036411583 -0.28225443 -0.054744307 0.3478841 -0.009989704 0.29216176 0.034944482 0.03235384
-0.07415673 0.15003239 -0.060685642 -0.2229547 -0.16061959 -0.05719227 -0.18342331 -0.002632087
-0.021696372 0.043556493 0.26256338 0.18961023 -0.092032455 -0.20619042 -0.3435504 0.055283476
-0.07581756 -0.49405912 -0.09942728 0.004558175 0.063896134 -0.5019722 -0.044289574 0.043782733
-0.56448746 -0.049157187 -0.2477099 0.018006261 -0.077175744 0.32396802 -0.2711661 0.42842755
-0.12171789 -0.15243536 0.29733723 0.111752845 -0.2541617 -0.28821987 -0.21033755 -0.4467453
-0.07968465 0.3197422 -0.32525128 0.037407707 0.34510908 0.048090346 0.3023014 -0.29035044
0.23163365 0.33530274 -0.2225797 0.30925316 -0.028732624 -0.40018335 0.08911576 0.0663199
-0.023558045 -0.21472141 -0.30102503 -0.03811475 0.48590434 -0.057947934 -0.02838338 -0.038152993
-0.015789025 0.36013392 -0.40594253 -0.27251068 0.10308517 0.38299766 0.26480505 -0.3310647
0.14671719 -0.36781046 -0.31023237 0.16851717 -0.04721707 -0.02547074 0.04766776 -0.01029243
-0.07280885 -0.06938787 -0.0904396 0.11663995 0.35575524 0.30667207 -0.043093253 -0.024438726
-0.007436707 -0.26403335 0.08988298 -0.11518775 -0.47920385 -0.3916244 -0.06440277 0.25891176
-0.7507514 -0.44191033 -0.3573214 0.21666843 0.28333962 -0.7088472 -0.035533547 -0.23589063
-0.10153606 -0.5443132 -0.48022968 0.31107768 0.30440503 -0.41243613 -0.036236554 -0.18760104
-0.458706 -0.031189568 -0.2267183 0.044550143 0.015856536 0.06087797 0.2980239 0.32456747
-0.14591199 -0.123240024 0.31594124 -0.049565844 -0.4155565 0.4271231 0.0709889 -0.011832923
-0.41994324 -0.068205774 0.21506427 -0.15858854 -0.4059816 0.2747412 0.3840116 -0.14909142
0.521742 0.36572245 -0.025552997 -0.10052376 -0.057031047 -0.103048235 -0.26991642 0.329875
0.24370249 0.2954984 -0.05656754 -0.3466361 0.03665982 0.15711933 0.12733619 0.19356461
-0.059796758 0.15919608 -0.092270166 -0.11307483 -0.15944952 -0.037756566 -0.21482311 0.293416
-0.047293212 -0.115994744 -0.30533928 -0.35246632 -0.05989188 -0.016235832 0.10592582 -0.28553912
00000000: 36cf 5e3d 35eb 1e3e 7254 6d3e a65d 6ebd
00000010: 800b 07be 3b96 b83e 1f8d 36be de0a b6bd
00000020: 9bde bdbe 38b6 54be fe9d 31bd 19e9 f33d
00000030: 1b03 4abe 4e43 a1bc 94f5 8a3e ca26 443d
00000040: 5429 51be 82da bbbe d7fa 093d 9b5a 8f3e
00000050: 6b0a 853d 47cc ad3e b992 85bb 4318 c0bc
00000060: c68e 06be d54b 9bbe 8cad 9abe dad0 93bd
00000070: d718 a0be bbe1 8fbd 8278 17bf 9cd1 813e
00000080: 0010 4f3c 664d be3c 71b2 c9bd 9f29 43bd
00000090: 3f20 6cbe 62d7 813e 4e88 973e e6e1 46be
000000a0: 588a efbd ad5a 34bf 2bbd 273d 61d0 67be
000000b0: f7df 7ebd 3f22 9a3d 82a7 323d c108 d1bd
000000c0: be27 70be aab6 013e 393a d33e b67f 983e
000000d0: d360 8fbe 32a6 bcbe 9a65 e1be f264 5cbe
000000e0: 1caa 80be 6810 c1bc 2b1a 88be 5d31 bcbe
000000f0: 6e3c 04bf 0624 3a3e 28f2 52bc 2468 69be
00000100: 2445 943d 9474 833e 5dde 59be 2fdc de3e
00000110: 50cd 8f3e 1248 a4be 28e5 a2bd e702 5ebd
00000120: cd2c 17bf 7f50 3a3e 51e2 5abe 4a48 8d3e
00000130: 1726 33bd 4b9a 9b3e ab7e 273e 8508 dabe
00000140: 80a0 6ebb a783 90be 913b 60bd dd1d b23e
00000150: dbab 23bc 3a96 953e f221 0f3d 7685 043d
00000160: 7cdf 97bd 17a2 193e 8291 78bd 3d4e 64be
00000170: 7679 24be 7142 6abd 52d3 3bbe 187f 2cbb
00000180: 97bc b1bc 4b68 323d b56e 863e 2f29 423e
00000190: 837b bcbd 9523 53be d7e5 afbe ed70 623d
000001a0: 3d46 9bbd 51f5 fcbe 88a0 cbbd be5c 953b
000001b0: fadb 823d 4081 00bf fc68 35bd 8655 333d
000001c0: 4082 10bf 0c59 49bd aaa7 7dbe de81 933c
000001d0: 510e 9ebd 23df a53e 48d6 8abe db5a db3e
000001e0: 3b47 f9bd 0418 1cbe 963c 983e adde e43d
000001f0: 7b21 82be 8e91 93be ba62 57be cdbb e4be
00000200: b531 a3bd 40b5 a33e 5687 a6be d338 193d
00000210: 23b2 b03e 62fa 443d 40c7 9a3e d0a8 94be
00000220: 5f31 6d3e cdac ab3e efeb 63be 6e56 9e3e
00000230: ae60 ebbc d5e4 ccbe 5382 b63d bad2 873d
00000240: cdfc c0bc eedf 5bbe f41f 9abe 361e 1cbd
00000250: 74c8 f83e d05a 6dbd 4384 e8bc 5046 1cbd
00000260: fc57 81bc 7963 b83e b3d7 cfbe 8586 8bbe
00000270: 511e d33d 4518 c43e 8794 873e 5081 a9be
00000280: 083d 163e a751 bcbe c7d6 9ebe c48f 2c3e
00000290: b066 41bd 03a8 d0bc 453f 433d 95a1 28bc
000002a0: ce1c 95bd 3a1b 8ebd 6638 b9bd ede0 ee3d
000002b0: 8d25 b63e 1f04 9d3e 8d82 30bd b933 c8bc
000002c0: 9faf f3bb 612f 87be 9114 b83d 8ee7 ebbd
000002d0: 355a f5be fe82 c8be 99e5 83bd 1590 843e
000002e0: 3e31 40bf 1242 e2be d5f2 b6be 54de 5d3e
000002f0: e411 913e 0377 35bf a08b 11bd 508d 71be
00000300: 23f2 cfbd 1c58 0bbf aae0 f5be 9345 9f3e
00000310: fada 9b3e d42a d3be c86c 14bd 7d1a 40be
00000320: 83db eabe 4481 ffbc d828 68be 367a 363d
00000330: 91e5 813c 2e5b 793d 9796 983e b52d a63e
00000340: f469 15be 4465 fcbd 0dc3 a13e 8e05 4bbd
00000350: d2c3 d4be e1af da3e a162 913d e0de 41bc
00000360: cd02 d7be 78af 8bbd cf39 5c3e 0965 22be
00000370: d2dc cfbe e1aa 8c3e 2b9d c43e 6cab 18be
00000380: e290 053f f93f bb3e 8554 d1bc 67df cdbd
00000390: 6399 69bd f40a d3bd 7c32 8abe 60e5 a83e
000003a0: 258d 793e 914b 973e 5db3 67bd 497a b1be
000003b0: 9b28 163d e4e3 203e 6b64 023e cd35 463e
000003c0: 72ed 74bd 4c04 233e 24f8 bcbd c793 e7bd
000003d0: bc46 23be a1a6 1abd 97fa 5bbe 9f3a 963e
000003e0: 87b6 41bd a78e edbd 6e55 9cbe 7776 b4be
000003f0: 3051 75bd 0201 85bc a3ef d83d 2f32 92be

lineal2.bias f4 [3]
0.19611014 -0.0148195075 -0.043358404
00000000: 19d1 483e 85cd 72bc 9598 31bd
